…
    "print(\"Length of the validation set :\",len(validation_dataset))"
   ]
  },
  {
   "cell_type": "markdown",
   "metadata": {},
   "source": [
    "## ConvNet"
   ]
  },
  {
   "cell_type": "code",
   "execution_count": 23,
   "metadata": {},
   "outputs": [
    {
     "name": "stdout",
     "output_type": "stream",
     "text": [
      "Model: \"sequential_3\"\n",
      "_________________________________________________________________\n",
      "Layer (type)                 Output Shape              Param #   \n",
      "=================================================================\n",
      "conv2d_5 (Conv2D)            (None, 254, 254, 32)      320       \n",
      "_________________________________________________________________\n",
      "max_pooling2d_5 (MaxPooling2 (None, 127, 127, 32)      0         \n",
      "_________________________________________________________________\n",
      "conv2d_6 (Conv2D)            (None, 125, 125, 32)      9248      \n",
      "_________________________________________________________________\n",
      "max_pooling2d_6 (MaxPooling2 (None, 62, 62, 32)        0         \n",
      "_________________________________________________________________\n",
      "flatten_3 (Flatten)          (None, 123008)            0         \n",
      "_________________________________________________________________\n",
      "dropout_3 (Dropout)          (None, 123008)            0         \n",
      "_________________________________________________________________\n",
      "dense_7 (Dense)              (None, 64)                7872576   \n",
      "_________________________________________________________________\n",
      "dense_8 (Dense)              (None, 64)                4160      \n",
      "_________________________________________________________________\n",
      "dense_9 (Dense)              (None, 1)                 65        \n",
      "=================================================================\n",
      "Total params: 7,886,369\n",
      "Trainable params: 7,886,369\n",
      "Non-trainable params: 0\n",
      "_________________________________________________________________\n"
     ]
    }
   ],
   "source": [
    "# Conv Neural Net\n",
    "\n",
    "import tensorflow as tensorflow\n",
    "from tensorflow.keras.callbacks import EarlyStopping\n",
…
